clashroyalebuildabot/data/side.onnx (onnx, 68762 bytes, 6 tensors)

linear1.0.weight f4 [2, 1536]
0	0xbc81f5f7	-0.015864355
1	0x3c1bd726	0.009511745
2	0xbcf35ed4	-0.029708304
3	0x3c109725	0.008825098
4	0xbd3092a9	-0.043108616
5	0x3cae83c3	0.021303063
6	0xbc687db0	-0.0141901225
7	0x3ca13da7	0.019682718
8	0xbb834d49	-0.004007016
9	0xbd2a5dcc	-0.041593358
10	0xbbd33324	-0.0064453054
11	0xbcb9678e	-0.022632387
12	0xbc47d6f0	-0.012197241
13	0x3b2bc193	0.0026207909
14	0x3cbeaa25	0.02327449
15	0xbb810840	-0.003937751
16	0x3ce66cfb	0.028128138
17	0x3c87bc9a	0.016569424
18	0xbbbeaaac	-0.0058186855
19	0x3cba8aca	0.022771258
20	0x3d8564c5	0.06513361
21	0xbc1aa57f	-0.009438871
22	0x3c420f2f	0.01184444
23	0x3d7264a2	0.059178002
24	0xbd6e7af5	-0.05822273
25	0x3cdfa2a7	0.027299238
26	0x3d2569bb	0.040384036
27	0xbc6d34b6	-0.014477899
28	0x3c936e66	0.017996978
29	0xb857a917	-5.141747e-05
30	0xba59474b	-0.00082885165
31	0x3cdbf87a	0.026851881
32	0xbbf93b84	-0.007605972
33	0xbd11a8d5	-0.0355614
34	0x3c6dca7e	0.01451361
35	0x3c41d50c	0.0118305795
36	0xbc4fb55f	-0.01267752
37	0xbba12e4a	-0.004918848
38	0xbc71bc9a	-0.014754439
39	0xbb99d968	-0.0046951063
40	0xbacd6f21	-0.0015673378
41	0x3bbab18a	0.005697434
42	0x3d2ffd24	0.042966023
43	0xbcfddb0b	-0.030988237
44	0x3c541086	0.012943393
45	0x3c28da08	0.010305889
46	0xbd344c56	-0.044018112
47	0xbd1710f9	-0.03688142
48	0x3c5eeae1	0.013605804
49	0x3d824163	0.06360128
50	0xbbf45fe1	-0.0074577187
51	0x3c8d4de7	0.01724906
52	0x3d478fc7	0.0487211
53	0xbb64fe9d	-0.00349418
54	0xbc6f9595	-0.0146230655
55	0x3c7974aa	0.015225569
56	0x3d18dc28	0.037319332
57	0x3c7c8c4e	0.015414311
58	0x3cc53fa3	0.024078196
59	0x3c35c857	0.011095128
60	0x3cb33dc2	0.021880034
61	0x3c67acc6	0.0141403135
62	0x3a2ad5f9	0.000651687
63	0xbc8505e0	-0.016238153
64	0xbb335fbe	-0.00273703
65	0x3c86f4e8	0.016474202
66	0xbc86af16	-0.01644091
67	0xbd7c7950	-0.06163913
68	0x3d01250a	0.031529464
69	0xbbdf0a6b	-0.006806662
70	0xbd2161b9	-0.039399836
71	0xbce8d391	-0.028421195
72	0x3cded20c	0.027199768
73	0xbd1e91d2	-0.038713284
74	0xbb1c5314	-0.002385323
75	0x3c2ea2fb	0.010658975
76	0xbd801220	-0.06253457
77	0xbb1ef0fe	-0.002425253
78	0x3cd0295e	0.02541035
79	0xbd53c555	-0.051701862
80	0x3bd18427	0.0063939276
81	0x3b74787b	0.0037303257
82	0xbca126bd	-0.019671792
83	0x3bd5dd06	0.006526592
84	0x3c936326	0.017991614
85	0xbc9d7b20	-0.01922375
86	0xbcfe43f6	-0.031038266
87	0x3d05a3a9	0.03262678
88	0x3cd64add	0.026158744
89	0x3cf584bb	0.029970517
90	0x3b5be3ab	0.0033552449
91	0x3d1790bc	0.037003264
92	0x3c565a44	0.013083044
93	0x3c2d3b78	0.0105732605
94	0x3c96f0f2	0.018425439
95	0x3cbca06a	0.02302571
96	0x3c23b9af	0.009993001
97	0x3d27b991	0.040948454
98	0xbc02895c	-0.007967319
99	0x3cf4875e	0.029849704
100	0x3d116815	0.03549965
101	0x3cf7ad8c	0.03023412
102	0xbcd309d6	-0.025761526
103	0x3cee6c74	0.029104449
104	0xbd0c5fe4	-0.034271136
105	0xbcb79c30	-0.022413343
106	0x3abb4db8	0.001429013
107	0x3d05b905	0.03264715
108	0x3c37a8ac	0.011209648
109	0x3cef609f	0.029220877
110	0x3d12a252	0.035799332
111	0xbc0f0e15	-0.008731385
112	0xbcb9bd08	-0.022673145
113	0x3d26d4a6	0.04073014
114	0xbd3823ec	-0.044956133
115	0xbcd5005e	-0.026001152
116	0x3c356f66	0.011073923
117	0xbd788e8b	-0.060682815
118	0xbd5191b0	-0.05116433
119	0x382f653c	4.1817533e-05
120	0x3b5b9956	0.0033508143
121	0xbd758e12	-0.059949942
122	0xbc17ebe3	-0.009272548
123	0xbc36abf1	-0.011149392
124	0xbd91ed89	-0.07125384
125	0xbd197b94	-0.03747137
126	0xbd01a156	-0.031648003
127	0xbbee7e12	-0.0072782123
128	0xbbb97f12	-0.0056609
129	0xbc72263f	-0.014779626
130	0xbc9b7d1d	-0.018980557
131	0xbb0728ef	-0.0020623764
132	0x3c94f445	0.018182883
133	0xbc33b8fd	-0.010969398
134	0xbc5c1a93	-0.01343407
135	0xbc22ead6	-0.009943685
136	0xbc984914	-0.018589534
137	0x3c9ad41b	0.018899968
138	0xbcd9f3ae	-0.026605453
139	0xbc841c9e	-0.016126927
140	0xbce5f2a5	-0.028069803
141	0xbc0a1e9e	-0.008430151
142	0x3cc96c4f	0.024587778
143	0x3ca70066	0.020385932
144	0xbc1d4799	-0.00959959
145	0x3cff4578	0.031161055
146	0x3bbd1afc	0.005771039
147	0xbb133f46	-0.0022468134
148	0x3b9e64e4	0.0048338044
149	0xbc32f6f4	-0.010923136
150	0xbbee8672	-0.0072792107
151	0x3d30faed	0.04320805
152	0xbd0d57ff	-0.034507748
153	0x3c9b64bc	0.018968932
154	0xb8ccac4e	-9.759572e-05
155	0xbd73ceea	-0.0595235
156	0xbc3abbb0	-0.011397287
157	0xbcbba48c	-0.02290561
158	0xbd1b9fa9	-0.03799406
159	0xb8baa3c4	-8.899675e-05
160	0xbc980ffc	-0.01856231
161	0xbc2e3e21	-0.01063493
162	0xbd05d770	-0.03267616
163	0xbbfc1532	-0.0076929564
164	0x3d2eeac2	0.04270435
165	0xbcad6f27	-0.021171166
166	0x3c304c80	0.0107604265
167	0x3a1cc5a8	0.0005980381
168	0xbccc9b2f	-0.024976341
169	0xbcc93674	-0.024562098
170	0xbc8548c2	-0.016270045
171	0x3bded65b	0.0068004555
172	0x3cbe41a7	0.023224665
173	0xbc379b35	-0.011206438
174	0x3c4cb155	0.012493451
175	0x3ca34133	0.01992855
176	0x3cb9edb3	0.022696352
177	0xbb834e64	-0.0040071476
178	0xbbddb8a4	-0.0067663956
179	0x3cec48c9	0.0288433
180	0xbc5e6227	-0.013573206
181	0x3ce54b33	0.02798996
182	0x3ceb5811	0.028728517
183	0xb9a88eba	-0.00032149797
184	0x3cbd66d5	0.023120323
185	0x3c72c9fc	0.014818665
186	0x3cb42201	0.02198887
187	0x3c7fa143	0.015602413
188	0xbcbe1c5f	-0.023206888
189	0x3cee518c	0.029091619
190	0xbd174dc7	-0.03693941
191	0xbd22ccaf	-0.039745983
192	0xbcd432b9	-0.025903093
193	0x3d0615f6	0.032735787
194	0xbb86e8a5	-0.004117089
195	0xbcf82188	-0.030289426
196	0x3c422400	0.011849403
197	0x3c857261	0.016289892
198	0xbcde52ba	-0.027139056
199	0xbb23dede	-0.0025004665
200	0x3cd3722d	0.02581128
201	0xbcce9a97	-0.025220199
202	0x3cc7869e	0.024356183
203	0x3cec121c	0.028817229
204	0xbcbb3b95	-0.02285556
205	0x3c280d7b	0.01025712
206	0x3c90edf5	0.017691592
207	0x3bf216d8	0.007387977
208	0xbb6fb637	-0.0036577114
209	0x3c913456	0.017725151
210	0x3c7e3f49	0.015518018
211	0xbcf53bef	-0.029935805
212	0x3cb22cd5	0.021749893
213	0xbc947ecc	-0.018126868
214	0xbd6cb189	-0.0577865
215	0x3cc76d45	0.024344096
216	0x3bb2fe68	0.0054624565
217	0xbd7ed9ca	-0.06221942
218	0x3ccee6d6	0.025256556
219	0x3aa509c2	0.0012591409
220	0xbd38e0d6	-0.045136295
221	0x3cffe7ce	0.031238463
222	0x386d8f3a	5.6638593e-05
223	0xbcbec808	-0.023288742
224	0x3ad5fb19	0.0016325443
225	0xbce5acdf	-0.028036533
226	0xbc61ebe0	-0.013789147
227	0x3be8984d	0.007098234
228	0xb9a82f1e	-0.00032078562
229	0x3bebbb8e	0.007193989
230	0x3d2da23f	0.042391058
231	0x3c580905	0.013185744
232	0x3cd7b64a	0.02633204
233	0x3d54b39a	0.051929094
234	0x3c2a467a	0.0103927795
235	0xbbb2c333	-0.0054553985
236	0x3b0653e6	0.0020496785
237	0x3c0f928c	0.008762967
238	0xbb051fcc	-0.0020313142
239	0xbc79910a	-0.015232334
240	0x3b8266b7	0.0039795297
241	0xbc891121	-0.0167318
242	0xbcb55490	-0.02213505
243	0xbcb8139c	-0.022470288
244	0xbd90ffbd	-0.07080028
245	0x3c11d8f3	0.008901822
246	0x3ac73ef2	0.0015201254
247	0xbd2d6ff2	-0.042343087
248	0xbbe97510	-0.0071245506
249	0xbc8fe0e9	-0.0175633
250	0xbb9905f8	-0.004669901
251	0x3c384d3c	0.011248883
252	0xbba365f0	-0.004986517
253	0x3c7452df	0.014912336
254	0xb7de03dc	-2.646626e-05
255	0xbb40cd4d	-0.0029419244

linear1.0.bias f4 [2]
0	0x3cb0df04	0.021590717
1	0xbbfaf186	-0.0076581864

onnx::Conv_27 f4 [32, 16, 3, 3]
0	0xbf096edf	-0.536848
1	0xbe44c112	-0.19214275
2	0x3e3e2053	0.18567018
3	0x3d1aadf4	0.03776355
4	0x3ed2eeba	0.4119776
5	0x3ec567ac	0.38555658
6	0xbeb9ce6c	-0.362903
7	0xbe8293a9	-0.2550328
8	0xbef4e0d2	-0.47827774
9	0x3f1db995	0.616113
10	0xbeab964b	-0.33513102
11	0xbf5e086d	-0.86731607
12	0xbef58d03	-0.47959146
13	0x3e9606af	0.29301974
14	0xbe889914	-0.2667929
15	0xbf541526	-0.8284477
16	0x3f4121ba	0.7544209
17	0x3e849830	0.2589736
18	0xbe691d85	-0.22765167
19	0x3f210b3e	0.6290778
20	0xbedbde0d	-0.4294285
21	0xbe20fe19	-0.1572193
22	0x3f5cb5c0	0.8621483
23	0xbf29314b	-0.6609084
24	0xbdb17c41	-0.08666278
25	0xbec5b102	-0.3861161
26	0x3d6b9b8e	0.057521395
27	0xbd8b68e1	-0.068071134
28	0xbf16ce7c	-0.5890882
29	0x3ed0b1e7	0.4076073
30	0x3e83c0c8	0.25733018
31	0x3e771d17	0.2413219
32	0xbd447aac	-0.04796855
33	0x3f09e24d	0.5386093
34	0x3f61967b	0.8812024
35	0xbf0ab419	-0.5418106
36	0xbe0b666f	-0.13613294
37	0xbf27b8fc	-0.6551664
38	0x3e0a1435	0.13484271
39	0x3e2b4848	0.16726792
40	0xbeacdeef	-0.33763835
41	0x3c3adff3	0.011405933
42	0xbe7c58da	-0.24643269
43	0x3f0a3765	0.53990775
44	0xbf46b5c3	-0.77621096
45	0x3ef437b8	0.4769876
46	0x3f17eeff	0.59349054
47	0xbed5c244	-0.41749775
48	0xbd3e310c	-0.046433493
49	0xbf1c7ff1	-0.61132723
50	0x3eb2028f	0.34767577
51	0x3b6c2074	0.0036030086
52	0xbe22fd9e	-0.1591706
53	0xbea09661	-0.3136473
54	0x3e10c047	0.14135848
55	0x3f1c29e0	0.61001396
56	0x3d85b935	0.06529466
57	0x3f20398f	0.6258783
58	0x3e21d74b	0.15804784
59	0x3f0c0908	0.5470128
60	0xbf427440	-0.75958633
61	0xbe80a04a	-0.2512229
62	0x3ed8a9ed	0.42317143
63	0xbeee13c4	-0.46499455
64	0xbdb6d6eb	-0.08927711
65	0xbe62a6f1	-0.22133996
66	0x3f29377f	0.66100305
67	0xbedc8540	-0.43070412
68	0x3f219ece	0.6313294
69	0x3f41b5fd	0.7566832
70	0xbf192946	-0.59828603
71	0x3ee709a5	0.45124546
72	0x3ed4cb79	0.41561487
73	0x3ee7adec	0.4524988
74	0xbf4a9b34	-0.7914307
75	0xbf43d486	-0.7649616
76	0xbe831b7f	-0.25606915
77	0x3df2cbaa	0.11855252
78	0xbeaf7274	-0.34267008
79	0xbf60a408	-0.8775029
80	0xbea4a3b9	-0.3215616
81	0xbeb29e60	-0.34886456
82	0x3edb0f9e	0.42785352
83	0xbe89bccf	-0.26901862
84	0x3f1a6a21	0.6031819
85	0xbd7687ae	-0.060187988
86	0x3effeb41	0.49984172
87	0xbe9e0ec4	-0.3087064
88	0x3ed881bd	0.42286482
89	0x3e81faea	0.25386745
90	0x3f19f3fe	0.6013793
91	0x3f26998e	0.65078056
92	0x3ea129fc	0.31477344
93	0xbe75c7d8	-0.24002016
94	0x3f465af6	0.77482545
95	0xbea6a840	-0.3255024
96	0x3f40a9f9	0.7525936
97	0xbee0b282	-0.4388619
98	0xbeafe522	-0.34354502
99	0xbeb9b147	-0.36268064
100	0x3eeb69e3	0.45979223
101	0xbf1d37d7	-0.6141333
102	0xbf145f1a	-0.57957613
103	0x3f26facd	0.6522644
104	0xbf1db0a1	-0.6159764
105	0x3bd4cbbf	0.006494015
106	0xbe790bdd	-0.24320932
107	0x3eb82588	0.35966134
108	0xbf2bbda3	-0.6708624
109	0x3dd469f3	0.10371771
110	0xbdb1c6f2	-0.08680524
111	0x3f486b7c	0.7828901
112	0xbec23b5c	-0.37935913
113	0xbf16126b	-0.58621854
114	0xbf216c38	-0.63055754
115	0x3e9ec03e	0.31006044
116	0x3e90e4e8	0.28299642
117	0xbe6cea6b	-0.23136298
118	0xbf1c8452	-0.61139405
119	0xbe9dfbbf	-0.3085613
120	0xbf51adb2	-0.81905663
121	0xbe5af4a5	-0.21382387
122	0x3ec4d20c	0.38441503
123	0x3e1f4439	0.15553369
124	0x3f74a0eb	0.9555804
125	0x3e248b78	0.16068828
126	0x3ef46127	0.4773037
127	0x3e3a405d	0.18188615
128	0xbeb11698	-0.3458755
129	0xbf364b3d	-0.71208555
130	0x3ec510a6	0.38489264
131	0x3e03ed4f	0.12883495
132	0x3f426dda	0.7594887
133	0xbc101375	-0.008793701
134	0x3f304e3f	0.68869394
135	0x3c8d4bc9	0.017248051
136	0xbf202e45	-0.625706
137	0x3f308613	0.6895458
138	0xbf20c4dd	-0.6280039
139	0xbe22b53b	-0.15889446
140	0x3e2aaf37	0.16668402
141	0xbf2a8869	-0.66614395
142	0x3f37c5b4	0.71786046
143	0xbf2ab6e3	-0.66685313
144	0x3e372768	0.17886126
145	0xbed45b36	-0.41475838
146	0x3f89faf6	1.0779712
147	0x3e3e098c	0.1855833
148	0x3eb4682f	0.35235736
149	0xbf315dd3	-0.6928379
150	0x3e098bdb	0.13432257
151	0x3ea8f086	0.32996005
152	0xbd49cb66	-0.04926624
153	0xbe5a835f	-0.21339177
154	0xbf3f4084	-0.7470782
155	0xbee9cfcd	-0.45666352
156	0x3f6c41dd	0.92288
157	0x3f89fddb	1.0780596
158	0x3f1ab593	0.6043331
159	0xbf021f66	-0.5082916
160	0xbf5301e1	-0.8242474
161	0xbf84c489	-1.0372478
162	0xbf3bcb8b	-0.73357457
163	0x3f2bf1db	0.6716592
164	0xbf4f3ac4	-0.80949044
165	0xbeee856a	-0.46586162
166	0x3f9c804f	1.2226657
167	0x3fa207c2	1.2658617
168	0x3f30e097	0.69092697
169	0x3f6d72e8	0.9275346
170	0xbf9c7664	-1.222363
171	0xbed58410	-0.41702318
172	0xbf6d0b66	-0.9259552
173	0x3e1a8ac6	0.15092
174	0x3ecbcd61	0.3980513
175	0xbf0289aa	-0.5099131
176	0x3fa60c0a	1.2972424
177	0xbf8f61fa	-1.1201775
178	0xbf442dfe	-0.7663268
179	0x3f5202b2	0.8203536
180	0xbf352d6d	-0.7077244
181	0x3f4a91de	0.79128826
182	0xbf7e09b0	-0.9923353
183	0xbe0cc3f3	-0.13746624
184	0x3f14d850	0.58142567
185	0x3d0b0dfe	0.03394889
186	0x3dba2090	0.09088242
187	0xbf485db6	-0.7826799
188	0xbf8475e7	-1.0348481
189	0x3f76a39b	0.9634339
190	0xbf0549b6	-0.520656
191	0x3eaf23da	0.3420704
192	0xbea9e09e	-0.33179182
193	0xbf26b893	-0.6512539
194	0xbf8941df	-1.0723227
195	0x3eb0a68a	0.3450206
196	0x3ed28f4c	0.41124952
197	0xbf72c85b	-0.9483697
198	0x3f09ec3c	0.5387609
199	0x3e3b7b29	0.183087
200	0xbe9fea26	-0.3123333
201	0x3e05717e	0.13031575
202	0x3f290680	0.66025543
203	0x3f069630	0.5257292
204	0xbf65e00e	-0.89795005
205	0xbf9f51b0	-1.2446804
206	0x3f7a22f6	0.97709596
207	0x3e0f51ea	0.13996091
208	0xbf3c0a65	-0.7345336
209	0x3ee9dedb	0.45677838
210	0xbf43411f	-0.7627124
211	0xbe7370df	-0.23773526
212	0xbd5a6c95	-0.05332621
213	0x3f2fce5a	0.6867424
214	0x3f72e3bb	0.9487874
215	0x3d89ba4c	0.067249864
216	0xbf2f11d0	-0.68386555
217	0x3f42015d	0.7578333
218	0xbf43d8e2	-0.7650281
219	0x3f332d94	0.6999142
220	0x3b95666c	0.004559329
221	0x3f8b73fc	1.0894771
222	0x3f1381be	0.57619846
223	0x3f35b01b	0.7097184
224	0x3f7df6f4	0.99204946
225	0x3eb1ca65	0.34724727
226	0x3ed2f9e1	0.41206267
227	0xbf6442de	-0.8916453
228	0xbecb2b6e	-0.39681572
229	0xbe6eeb46	-0.23331937
230	0x3f611c89	0.87934166
231	0x3e70b354	0.23505908
232	0xbf62bc7d	-0.8856886
233	0xbf0d1bdf	-0.5512065
234	0xbf25c339	-0.6475101
235	0x3f542adb	0.8287789
236	0xbea5af3e	-0.32360262
237	0x3e8fb8b8	0.28070617
238	0x3dc5cd15	0.09658257
239	0xbecde084	-0.40210354
240	0xbf96d66f	-1.178419
241	0x3ef310e4	0.47473824
242	0x3effc07b	0.49951538
243	0x3f41df54	0.75731397
244	0x3f03ecc4	0.5153315
245	0xbec4b417	-0.38418648
246	0xbf32f4b5	-0.69904643
247	0x3ec68c98	0.3877914
248	0xbb43161e	-0.0029767822
249	0x3f830a84	1.0237584
250	0x3ca8e32e	0.02061614
251	0xbf3a2bba	-0.7272297
252	0x3f0b8b72	0.5450965
253	0xbf8ea820	-1.1145058
254	0x3f4c87a2	0.7989446
255	0xbf4027b4	-0.7506058

onnx::Conv_28 f4 [32]
0	0x3d5e48a8	0.05426851
1	0xbe2f34d3	-0.17109995
2	0x401b88c8	2.4302235
3	0xbfe8647b	-1.8155664
4	0xbec4a6ae	-0.38408417
5	0x3f46b0d6	0.7761358
6	0xbe9f3ce7	-0.31101152
7	0x404ea8b5	3.229047
8	0xbc8e890c	-0.017399333
9	0xc014106f	-2.313503
10	0xbf7ae076	-0.9799875
11	0x4073b678	3.808012
12	0x3f37b14f	0.71754926
13	0xbff6453c	-1.9239879
14	0x4001592e	2.021068
15	0x400478f0	2.0698814
16	0x406a319e	3.6592784
17	0xc0540bc8	-3.313219
18	0xbe78e901	-0.24307634
19	0x3f6191e4	0.88113236
20	0x400a3a00	2.15979
21	0xbfa6c101	-1.302765
22	0x3e9f5837	0.3112199
23	0x3fbb0eb0	1.4613857
24	0xbfc9cbc9	-1.5765315
25	0xbec713aa	-0.3888219
26	0xc0491c03	-3.1423347
27	0x404bfe19	3.187384
28	0x3e8136dc	0.25237167
29	0x3fb9faf5	1.4529711
30	0x3f070128	0.5273614
31	0xbf62176c	-0.8831699

onnx::Conv_30 f4 [32, 32, 3, 3]
0	0xbe435aea	-0.1907765
1	0x3e59adf2	0.21257761
2	0xbb537fef	-0.00322723
3	0xbc97275a	-0.018451381
4	0x3ce31d6b	0.027723989
5	0x3e667a25	0.22507532
6	0xbdde7795	-0.10862652
7	0xbe302a01	-0.17203523
8	0x3c41948b	0.011815201
9	0xbd7bc79d	-0.061469663
10	0x3e0e6c20	0.13908434
11	0xbcfb1ef0	-0.0306544
12	0xbe10dedc	-0.14147514
13	0xbe368c5a	-0.17826977
14	0xbd530e56	-0.051527344
15	0xbba0098e	-0.0048839515
16	0x3e008bd0	0.12553334
17	0x3d50ac5d	0.05094563
18	0x3d7128a8	0.058876663
19	0xbd272624	-0.040807858
20	0xbd62755d	-0.055287708
21	0x3e9835e4	0.29728615
22	0xbcc539e0	-0.024075449
23	0xbd38da1d	-0.045129884
24	0x3d86df3c	0.06585547
25	0xbd4fb39b	-0.050708394
26	0xba616092	-0.0008597459
27	0x3e26b205	0.16278847
28	0x3e387b8a	0.18015876
29	0xbe4a6fa7	-0.19769154
30	0xbbd81d2c	-0.0065952744
31	0xbde77c7e	-0.11303042
32	0xbdd3174d	-0.10307179
33	0x3bdbd59e	0.0067088148
34	0x3e281dcd	0.16417618
35	0xbd72e561	-0.059300784
36	0x3ddbccce	0.10732423
37	0x3e21e97d	0.15811725
38	0x3e0a2ea0	0.13494349
39	0x3d823d4c	0.06359348
40	0x3c151361	0.009098859
41	0x3e14c224	0.14527184
42	0x3d8e47b3	0.06947269
43	0xbda2318d	-0.07919607
44	0xbd6404d5	-0.05566867
45	0x3d7101bd	0.05883955
46	0xbd622175	-0.05520769
47	0xbe0a671a	-0.13515893
48	0xbcd45451	-0.025919111
49	0x3d019298	0.031633943
50	0xbe5bd1ed	-0.21466799
51	0x3dfe03e3	0.12403085
52	0x3c857711	0.016292127
53	0xbd717c0d	-0.058956195
54	0x3dc2c546	0.09510283
55	0xbdde1a09	-0.108448096
56	0xbdec5922	-0.11540438
57	0xbd30dca0	-0.043179154
58	0x3e623ce5	0.22093542
59	0xbe5c89d2	-0.2153695
60	0x3d4169e0	0.04722011
61	0xbe078142	-0.13232902
62	0x3db2a37d	0.08722589
63	0xbd1290d5	-0.035782654
64	0xbe4581bc	-0.19287771
65	0xbe08dac4	-0.13364702
66	0xbe2865d7	-0.16445099
67	0xbe053cf6	-0.13011536
68	0x3e686fa9	0.22698845
69	0x3d9545bd	0.07288692
70	0x3dfab6a6	0.12241869
71	0x3c4bbb2f	0.012434765
72	0x3d2acdba	0.041700102
73	0xbd0613f3	-0.03273387
74	0x3d1d6cd7	0.038433876
75	0x3c59e958	0.013300262
76	0x3e8278a1	0.25482658
77	0x3d918232	0.07104911
78	0xbdd2cd20	-0.10293031
79	0x3e3cfff0	0.18457007
80	0x3e2f51d5	0.1712106
81	0x3da2809a	0.07934685
82	0x3de44088	0.11145121
83	0x3da23afc	0.079214066
84	0x3dc087aa	0.09400876
85	0x3c2e09d6	0.010622462
86	0xbd154298	-0.036440462
87	0xbd85e6b0	-0.06538141
88	0x3d1ef3e9	0.03880683
89	0xbcfe5039	-0.031044113
90	0xbcc7ef1c	-0.024406008
91	0xbddc3c0a	-0.10753639
92	0x3dbe88be	0.09303425
93	0x3c7ba8ab	0.015360038
94	0x3d432b81	0.04764891
95	0x3df8a864	0.12141493
96	0xbdfaedb7	-0.12252372
97	0xbd80eac1	-0.06294776
98	0xbe4f39a7	-0.20236836
99	0xbe1b802f	-0.15185617
100	0xbe517c43	-0.20457558
101	0x3df8e053	0.121521614
102	0x3c98b003	0.018638616
103	0xbe088e29	-0.1333548
104	0xbe4411a6	-0.19147357
105	0xbe2c4793	-0.16824178
106	0xbe2fb5d7	-0.1715921
107	0xbc8bb428	-0.017053679
108	0x3e1e32ce	0.15449068
109	0xbd88cab0	-0.066792846
110	0x3e45f4c9	0.1933166
111	0xbe4c632e	-0.19959709
112	0xbe3d6a19	-0.18497504
113	0x3df6a1f6	0.1204261
114	0x3dad3518	0.084573925
115	0xbd985c14	-0.074394375
116	0x3d76ff07	0.060301807
117	0xbe22e67a	-0.15908232
118	0xbe5f8e1a	-0.21831551
119	0xbe348168	-0.1762749
120	0xbe2c9330	-0.16853023
121	0xbd96a964	-0.073565274
122	0x3e1749ea	0.1477429
123	0xbe3bf91a	-0.18356743
124	0x3d287df8	0.04113576
125	0x3d21a4ee	0.03946393
126	0x3d5f3c8b	0.054501098
127	0xbe367e90	-0.17821717
128	0x3e2c263b	0.16811459
129	0xbe03b298	-0.12861097
130	0x3d4e6b54	0.050395325
131	0xbde78a6e	-0.113057
132	0xbe127671	-0.14302994
133	0xbe092f18	-0.13396871
134	0x3e303707	0.17208491
135	0xbcbc981f	-0.023021756
136	0xbdaf25cf	-0.08552133
137	0xbe312c66	-0.17302093
138	0x3e5f27ed	0.21792574
139	0x3d41c706	0.047308944
140	0xbe390704	-0.18069082
141	0xbdeba7d3	-0.11506619
142	0xbd03994b	-0.032128613
143	0x3db37873	0.08763208
144	0xbc1e7129	-0.009670534
145	0xbe4d85a0	-0.20070505
146	0xbddce92d	-0.10786662
147	0xbcc8de19	-0.024519967
148	0xbd39ba30	-0.045343578
149	0xbe0f1990	-0.13974595
150	0x3d9c0151	0.076174386
151	0xbd909b19	-0.070608325
152	0xbd835dc2	-0.06414367
153	0xbdf910b6	-0.121613905
154	0xbe962667	-0.29326174
155	0x3dce7d49	0.1008249
156	0xbde8df4e	-0.11370717
157	0xbd39bc2d	-0.045345474
158	0xbca8fde5	-0.020628879
159	0x3e57eea3	0.21087126
160	0xbd107814	-0.035270765
161	0xbd5a0a8c	-0.053232715
162	0x3de16107	0.110048346
163	0xbde6e6c8	-0.11274487
164	0xbd46f2b9	-0.048571322
165	0xbe18009c	-0.14843982
166	0x3dcd35da	0.10020037
167	0xbddf85f4	-0.109142214
168	0xbe0b7ff8	-0.13623035
169	0x3d8d725d	0.06906579
170	0x3ceb6a25	0.028737137
171	0x3d6c462b	0.057684105
172	0xbc8579f9	-0.016293513
173	0x3db4ecfe	0.08834265
174	0xbdef5ec3	-0.11687996
175	0xbdee4756	-0.116347
176	0xbd7b1fba	-0.061309554
177	0x3dc09141	0.09402705
178	0x3c9cf7f2	0.019161198
179	0x3db647f4	0.08900443
180	0x3e40996f	0.1880853
181	0x3cbca314	0.02302698
182	0xbe1ed468	-0.15510714
183	0xbdbcd8dd	-0.09221051
184	0x3e0d1fa7	0.13781606
185	0xbe11f8b4	-0.14255029
186	0x3e4bb362	0.19892648
187	0xbdc4831f	-0.09595322
188	0xbe69fa1b	-0.22849314
189	0xbddf690b	-0.10908707
190	0xbdcbbab6	-0.09947722
191	0xbe5cab67	-0.2154976
192	0xbc8ae36b	-0.016954144
193	0x3e6859b2	0.22690466
194	0x3d80e2b7	0.062932424
195	0xbbd41d67	-0.0064732316
196	0xbbd333c7	-0.0064453813
197	0xbe73e356	-0.2381719
198	0x3dfa98e1	0.122361906
199	0x3d91f173	0.07126131
200	0xbdd0307c	-0.10165498
201	0xbe42fa4c	-0.19040793
202	0x3e2e40da	0.17016926
203	0x3dc351ad	0.09537063
204	0x3de7c7da	0.113174155
205	0xbde745b4	-0.11292592
206	0xbd6ef1fe	-0.05833625
207	0xbdadb53d	-0.08481834
208	0xbe0d561a	-0.13802376
209	0x3d08a8d9	0.03336415
210	0xbcb78979	-0.02240442
211	0x3caf7338	0.021417245
212	0x3da6f595	0.0815231
213	0xbdd48e2a	-0.10378678
214	0xbe325b11	-0.17417552
215	0xbdce01dc	-0.100589484
216	0x3e003ca4	0.12523133
217	0xbd1f8e07	-0.038953807
218	0x3d128253	0.035768818
219	0x3d97f292	0.074193135
220	0xbd8b87f0	-0.068130374
221	0xbdbfb8ce	-0.093614206
222	0x3e03c248	0.12867081
223	0xbd69bd49	-0.057065282
224	0x3dfb743a	0.12278028
225	0xbe01eeb5	-0.12688716
226	0xbe4c589e	-0.1995568
227	0x3d839d61	0.06426502
228	0xbe296d64	-0.16545635
229	0xbdd04fe1	-0.10171486
230	0x3e47739a	0.19477692
231	0x3d6dc8c6	0.0580528
232	0xbe5d665e	-0.21621081
233	0xbe04c497	-0.12965618
234	0x3dd6e9f2	0.1049384
235	0x3d2d0643	0.0422423
236	0xbe2cbcae	-0.1686885
237	0xbe17c76f	-0.14822172
238	0xbc7cfc72	-0.015441047
239	0xbd73c5fd	-0.05951499
240	0x3e0b8239	0.13623895
241	0xbde5ed6a	-0.11226924
242	0x3da63a28	0.08116561
243	0xbded8494	-0.11597553
244	0xbe30bfc0	-0.17260647
245	0x3e4f8496	0.20265421
246	0x3de9ece4	0.114221364
247	0xbdf51b93	-0.1196815
248	0xbe01c8dd	-0.1267428
249	0xbc4125ab	-0.011788766
250	0x3dc04077	0.09387296
251	0x3d68f840	0.056877375
252	0xbd942b6b	-0.07234844
253	0x3db6da49	0.08928353
254	0x3cf62b2f	0.030049888
255	0x3e28cc54	0.16484195

onnx::Conv_31 f4 [32]
0	0x3f909f5e	1.1298635
1	0xbfbbb37f	-1.4664153
2	0xbea598ab	-0.3234304
3	0x3e55f9be	0.2089605
4	0xbd4f030c	-0.050540015
5	0x3f59dd40	0.85103226
6	0x3f29714b	0.66188496
7	0x3f012d93	0.50460166
8	0xbf6082de	-0.8769969
9	0x3ed89b5e	0.42306036
10	0xbf005f55	-0.50145465
11	0xbf39bc21	-0.72552687
12	0x3fbcf58f	1.4762439
13	0x3f8f1e30	1.1181087
14	0xbeba6b2a	-0.36409885
15	0xbecb8d7a	-0.39756376
16	0x3fb85998	1.4402342
17	0xbf864754	-1.0490518
18	0xbf6461ef	-0.89211935
19	0x3fd0c01f	1.6308631
20	0xbe7e0112	-0.24805096
21	0xbe5688de	-0.20950648
22	0xbf235b7c	-0.6381147
23	0xbf8a6183	-1.0811008
24	0x3efe2aeb	0.4964212
25	0x3fbcab9f	1.4739875
26	0xbe2c6892	-0.16836765
27	0xbef534d4	-0.47891867
28	0x3eea5e42	0.45775038
29	0x3e32c88e	0.17459318
30	0xbde2b8a5	-0.110703744
31	0x3c77c2b8	0.015122108
